…
dim=128, model='BabyAI-GoToRedBallGrey-v0_ppo_ObjectsVisitRestrainingBolt_3.0_expert_filmcnn_gru_mem_seed1_20-05-19-13-03-27', no_instr=False, no_mem=False, optim_alpha=0.99, optim_eps=1e-05, patience=100, ppo_epochs=4, pretrained_model=None, procs=64, rb='ObjectsVisitRestrainingBolt', rb_prop=3.0, recurrence=20, reward_scale=20.0, save_interval=50, seed=1, task_id_seed=False, tb=True, val_episodes=500, val_interval=1, val_seed=1000000000, value_loss_coef=0.5)
__main__: 2020-05-19 13:03:27,852: CUDA available: False
__main__: 2020-05-19 13:03:27,852: ACModel(
  (image_conv): Sequential(
    (0): Conv2d(3, 128, kernel_size=(2, 2), stride=(1, 1), padding=(1, 1))
    (1): BatchNorm2d(128, eps=1e-05, momentum=0.1, affine=True, track_running_stats=True)
    (2): ReLU()
    (3): MaxPool2d(kernel_size=(2, 2), stride=2, padding=0, dilation=1, ceil_mode=False)
    (4): Conv2d(128, 128, kernel_size=(3, 3), stride=(1, 1), padding=(1, 1))
    (5): BatchNorm2d(128, eps=1e-05, momentum=0.1, affine=True, track_running_stats=True)
    (6): ReLU()
    (7): MaxPool2d(kernel_size=(2, 2), stride=2, padding=0, dilation=1, ceil_mode=False)
  )
  (film_pool): MaxPool2d(kernel_size=(2, 2), stride=2, padding=0, dilation=1, ceil_mode=False)
  (word_embedding): Embedding(100, 128)
  (instr_rnn): GRU(128, 128, batch_first=True)
  (memory_rnn): LSTMCell(128, 128)
  (FiLM_Controler_0): ExpertControllerFiLM(
    (conv1): Conv2d(128, 128, kernel_size=(3, 3), stride=(1, 1), padding=(1, 1))
    (bn1): BatchNorm2d(128, eps=1e-05, momentum=0.1, affine=True, track_running_stats=True)
    (conv2): Conv2d(128, 128, kernel_size=(3, 3), stride=(1, 1), padding=(1, 1))
    (bn2): BatchNorm2d(128, eps=1e-05, momentum=0.1, affine=True, track_running_stats=True)
    (weight): Linear(in_features=128, out_features=128, bias=True)
    (bias): Linear(in_features=128, out_features=128, bias=True)
  )
  (FiLM_Controler_1): ExpertControllerFiLM(
    (conv1): Conv2d(128, 128, kernel_size=(3, 3), stride=(1, 1), padding=(1, 1))
    (bn1): BatchNorm2d(128, eps=1e-05, momentum=0.1, affine=True, track_running_stats=True)
    (conv2): Conv2d(128, 128, kernel_size=(3, 3), stride=(1, 1), padding=(1, 1))
    (bn2): BatchNorm2d(128, eps=1e-05, momentum=0.1, affine=True, track_running_stats=True)
    (weight): Linear(in_features=128, out_features=128, bias=True)
    (bias): Linear(in_features=128, out_features=128, bias=True)
  )
  (actor): Sequential(
    (0): Linear(in_features=128, out_features=64, bias=True)
    (1): Tanh()
    (2): Linear(in_features=64, out_features=7, bias=True)
  )
  (critic): Sequential(
    (0): Linear(in_features=128, out_features=64, bias=True)
    (1): Tanh()
    (2): Linear(in_features=64, out_features=1, bias=True)
  )
)
__main__: 2020-05-19 13:06:00,260: U 10 | E 454 | F 025600 | FPS 0148 | D 152 | R:xsmM  0.34  0.51  0.00  2.54 | Rb:xsmM  0.08  0.33  0.00  1.90 | Rv:xsmM  0.27  0.34  0.00  0.99 | S 0.41 | F:xsmM 47.9 21.3 1.0 64.0 | H 1.806 | V 1.383 | pL -1.113 | vL 31.232 | L 14.485 | gN 3.911 | 
__main__: 2020-05-19 13:08:29,535: U 20 | E 1034 | F 051200 | FPS 0185 | D 301 | R:xsmM  0.44  0.42  0.00  1.98 | Rb:xsmM  0.04  0.24  0.00  1.48 | Rv:xsmM  0.40  0.34  0.00  0.97 | S 0.66 | F:xsmM 40.3 21.1 2.0 64.0 | H 1.780 | V 2.258 | pL -1.006 | vL 17.860 | L 7.906 | gN 5.444 | 
…
