…
im=128, model='BabyAI-GoToRedBallGrey-v0_ppo_ObjectsVisitRestrainingBolt_True_expert_filmcnn_gru_mem_seed1_20-05-19-01-30-11', no_instr=False, no_mem=False, optim_alpha=0.99, optim_eps=1e-05, patience=100, ppo_epochs=4, pretrained_model=None, procs=64, rb='ObjectsVisitRestrainingBolt', rb_prop=True, recurrence=20, reward_scale=20.0, save_interval=50, seed=1, task_id_seed=False, tb=True, val_episodes=500, val_interval=1, val_seed=1000000000, value_loss_coef=0.5)
__main__: 2020-05-19 01:30:23,484: CUDA available: True
__main__: 2020-05-19 01:30:23,484: ACModel(
  (image_conv): Sequential(
    (0): Conv2d(3, 128, kernel_size=(2, 2), stride=(1, 1), padding=(1, 1))
    (1): BatchNorm2d(128, eps=1e-05, momentum=0.1, affine=True, track_running_stats=True)
    (2): ReLU()
    (3): MaxPool2d(kernel_size=(2, 2), stride=2, padding=0, dilation=1, ceil_mode=False)
    (4): Conv2d(128, 128, kernel_size=(3, 3), stride=(1, 1), padding=(1, 1))
    (5): BatchNorm2d(128, eps=1e-05, momentum=0.1, affine=True, track_running_stats=True)
    (6): ReLU()
    (7): MaxPool2d(kernel_size=(2, 2), stride=2, padding=0, dilation=1, ceil_mode=False)
  )
  (film_pool): MaxPool2d(kernel_size=(2, 2), stride=2, padding=0, dilation=1, ceil_mode=False)
  (word_embedding): Embedding(100, 128)
  (instr_rnn): GRU(128, 128, batch_first=True)
  (memory_rnn): LSTMCell(128, 128)
  (FiLM_Controler_0): ExpertControllerFiLM(
    (conv1): Conv2d(128, 128, kernel_size=(3, 3), stride=(1, 1), padding=(1, 1))
    (bn1): BatchNorm2d(128, eps=1e-05, momentum=0.1, affine=True, track_running_stats=True)
    (conv2): Conv2d(128, 128, kernel_size=(3, 3), stride=(1, 1), padding=(1, 1))
    (bn2): BatchNorm2d(128, eps=1e-05, momentum=0.1, affine=True, track_running_stats=True)
    (weight): Linear(in_features=128, out_features=128, bias=True)
    (bias): Linear(in_features=128, out_features=128, bias=True)
  )
  (FiLM_Controler_1): ExpertControllerFiLM(
    (conv1): Conv2d(128, 128, kernel_size=(3, 3), stride=(1, 1), padding=(1, 1))
    (bn1): BatchNorm2d(128, eps=1e-05, momentum=0.1, affine=True, track_running_stats=True)
    (conv2): Conv2d(128, 128, kernel_size=(3, 3), stride=(1, 1), padding=(1, 1))
    (bn2): BatchNorm2d(128, eps=1e-05, momentum=0.1, affine=True, track_running_stats=True)
    (weight): Linear(in_features=128, out_features=128, bias=True)
    (bias): Linear(in_features=128, out_features=128, bias=True)
  )
  (actor): Sequential(
    (0): Linear(in_features=128, out_features=64, bias=True)
    (1): Tanh()
    (2): Linear(in_features=64, out_features=7, bias=True)
  )
  (critic): Sequential(
    (0): Linear(in_features=128, out_features=64, bias=True)
    (1): Tanh()
    (2): Linear(in_features=64, out_features=1, bias=True)
  )
)
__main__: 2020-05-19 01:30:27,171: U 1 | E 13 | F 002560 | FPS 0695 | D 3 | R:xsmM  0.16  0.33  0.00  0.97 | Rb:xsmM  0.00  0.00  0.00  0.00 | Rv:xsmM  0.16  0.33  0.00  0.97 | S 0.20 | F:xsmM 2.9 7.4 0.0 34.0 | H 1.931 | V 0.241 | pL -0.871 | vL 10.136 | L 4.177 | gN 2.623 | 
__main__: 2020-05-19 01:30:30,274: U 2 | E 76 | F 005120 | FPS 0826 | D 6 | R:xsmM  0.07  0.20  0.00  0.93 | Rb:xsmM  0.00  0.02  0.00  0.13 | Rv:xsmM  0.07  0.20  0.00  0.93 | S 0.16 | F:xsmM 60.0 12.3 5.0 64.0 | H 1.924 | V 0.180 | pL -0.219 | vL 3.113 | L 1.319 | gN 1.186 | 
…
